C:\Users\user123\PycharmProjects\Hackathon-Finam_v4\venv\Scripts\python.exe C:\Users\user123\PycharmProjects\Hackathon-Finam_v4\4_check_predictions_by_neural_network.py
Model: "sequential"
_________________________________________________________________
 Layer (type)                Output Shape              Param #
=================================================================
 rescaling (Rescaling)       (None, 128, 128, 3)       0

 conv2d (Conv2D)             (None, 126, 126, 32)      896

 max_pooling2d (MaxPooling2D  (None, 63, 63, 32)       0
 )

 batch_normalization (BatchN  (None, 63, 63, 32)       128
 ormalization)

 conv2d_1 (Conv2D)           (None, 61, 61, 32)        9248

 max_pooling2d_1 (MaxPooling  (None, 30, 30, 32)       0
 2D)

 batch_normalization_1 (Batc  (None, 30, 30, 32)       128
 hNormalization)

 conv2d_2 (Conv2D)           (None, 28, 28, 32)        9248

 max_pooling2d_2 (MaxPooling  (None, 14, 14, 32)       0
 2D)

 batch_normalization_2 (Batc  (None, 14, 14, 32)       128
 hNormalization)

 flatten (Flatten)           (None, 6272)              0

 dense (Dense)               (None, 128)               802944

 dense_1 (Dense)             (None, 2)                 258

=================================================================
Total params: 822,978
Trainable params: 822,786
Non-trainable params: 192
_________________________________________________________________
For image: NN\training_dataset_M1\0\SBER-M1-2021_01_06_12_40_00.png Predicted: [[3.9315763 2.6979446]] => class=1
For image: NN\training_dataset_M1\0\SBER-M1-2021_01_06_15_20_00.png Predicted: [[ 1.2243998 -5.352553 ]] => class=0
…
